model.pt (torch_old, 8320 bytes, 3 tensors)

weight f4 [10, 18]
0	0xbe4b55bc	-0.19856924
1	0xbc3497c8	-0.011022516
2	0xbdd551c3	-0.104159854
3	0x3e67424a	0.22583881
4	0x3e52c5b1	0.20583226
5	0x3be87280	0.0070937276
6	0xbd630418	-0.055423826
7	0x3cbcf3bf	0.023065446
8	0x3cdad844	0.026714452
9	0xbe9ef898	-0.31049037
10	0x3d87a068	0.06622392
11	0x3d86dfd6	0.06585662
12	0xbb0fc886	-0.002193959
13	0xbd6b9195	-0.057511885
14	0xbd6cf42f	-0.05785006
15	0x3cdc514d	0.026894236
16	0xbe2425df	-0.16030072
17	0xbd3ebae6	-0.04656496
18	0xbe256478	-0.16151607
19	0x3e31ecc4	0.17375475
20	0xbeb373a6	-0.3504917
21	0x3e9e6f9f	0.30944535
22	0x3e30650c	0.17226046
23	0x3c2b5bce	0.0104589
24	0xbd50afe6	-0.050949
25	0x3ba028bc	0.0048876684
26	0xbca76618	-0.020434424
27	0x3da6b461	0.08139873
28	0xbd7b308a	-0.061325587
29	0xbdc8fe4e	-0.0981413
30	0xbba3a908	-0.0049945153
31	0xbe0c6206	-0.13709268
32	0x3da3f9ac	0.080066055
33	0xbc9b5d74	-0.01896546
34	0xbe0efbea	-0.13963285
35	0xbd2a88a9	-0.041634236
36	0xbe016db9	-0.12639512
37	0x3d98a5c4	0.07453492
38	0x3c77498e	0.01509322
39	0x3e675003	0.22589116
40	0x3ede5994	0.43427718
41	0x3bd644f9	0.006538984
42	0xbd805424	-0.062660486
43	0x3cbc040c	0.022951148
44	0xbddb97b9	-0.10722298
45	0xbe624ae8	-0.22098887
46	0xbda133cd	-0.07871208
47	0x3dcb017d	0.09912393
48	0x3c74618c	0.014915835
49	0xbc99f98c	-0.018795751
50	0x3df79067	0.120880894
51	0x3cfa0844	0.03052152
52	0xbd811081	-0.06301976
53	0xbd048787	-0.03235581
54	0xbe13553b	-0.14387982
55	0xbe5a5caf	-0.21324418
56	0xbf0e1d46	-0.5551342
57	0xbe5bbdf8	-0.21459186
58	0x3e4e9a7f	0.20176123
59	0x3cdbc6aa	0.026828129
60	0xba9c09ae	-0.001190474
61	0x3898386a	7.258433e-05
62	0x3cb114aa	0.021616299
63	0xbde8c6a9	-0.113660164
64	0x3eaa2e61	0.3323851
65	0x3e8d356c	0.2757982
66	0xbe3926e8	-0.18081248
67	0xbe1a122c	-0.15045995
68	0xbe24e3d3	-0.16102533
69	0x3e1f3516	0.15547594
70	0x3dab41a5	0.0836213
71	0xbbd7c6d7	-0.006584983
72	0xbcc1c172	-0.023651812
73	0xbd8684ad	-0.06568275
74	0xbd778f8d	-0.060439635
75	0xbdbf3555	-0.09336344
76	0x3e04094f	0.12894176
77	0x3bab399d	0.005225374
78	0xbce228ea	-0.0276074
79	0x3dcdae2e	0.10042988
80	0x3a2e8f36	0.00066589133
81	0x3e06b3c2	0.1315451
82	0x38caa38c	9.6625736e-05
83	0xbd59ecaf	-0.053204235
84	0xbd17e7b4	-0.037086204
85	0xbd7a4747	-0.06110313
86	0xbe6a4573	-0.22878055
87	0xbe271f3c	-0.16320509
88	0x3d74b237	0.05974027
89	0xbe45b871	-0.1930864
90	0xbf1cef93	-0.6130306
91	0x3e60a9ec	0.2193982
92	0x3e33ec49	0.17570604
93	0x3dea589e	0.11442684
94	0x3ebed597	0.3727233
95	0xbcc598b1	-0.02412066
96	0xbd793b99	-0.060847852
97	0x3caa8d31	0.020819278
98	0xbe8329d9	-0.25617865
99	0xbe2c8b78	-0.16850078
100	0xbc0f4ad3	-0.008745867
101	0x3e1e9c60	0.1548934
102	0x3dc9ca08	0.098529875
103	0xbe60ab2c	-0.21940297
104	0xbf700be9	-0.93768173
105	0xbd144866	-0.036201857
106	0xbecd7a65	-0.40132442
107	0xbddfdd19	-0.10930843
108	0x3d5b7564	0.05357875
109	0xbe3b6a84	-0.18302351
110	0xbda6cb18	-0.08144206
111	0x3c3f3014	0.011669178
112	0xbde52c67	-0.1119011
113	0x3d351263	0.044206988
114	0x3bd1773e	0.0063923886
115	0xba5e6a21	-0.00084844424
116	0x3d8ee4ca	0.06977232
117	0xbe0d38a6	-0.13791141
118	0x3e4a9e2c	0.197869
119	0x3dc441f7	0.09582894
120	0xbe554bb3	-0.20829658
121	0xbd26f50e	-0.040761046
122	0xbc814e85	-0.015784511
123	0x3db549e9	0.08851988
124	0xbe31ac57	-0.17350899
125	0xbd774228	-0.060365826
126	0x3e0035a0	0.12520456
127	0x3d9137f2	0.07090749
128	0xbb9f6ad8	-0.0048650317
129	0x3d8ddac1	0.069264896
130	0xbc72bbb4	-0.01481526
131	0x3bcae8cd	0.006192303
132	0xbb6a6030	-0.0035762899
133	0x3bdb5de4	0.0066945422
134	0xbb89f399	-0.0042099473
135	0x3d6c7f64	0.057738677
136	0x3d7aa281	0.061190132
137	0x3b74e999	0.003737068
138	0xbbb31e1e	-0.0054662367
139	0x3cec0701	0.028811933
140	0xbedf67a2	-0.43633753
141	0xbad9391e	-0.0016572808
142	0x3dad686c	0.084671825
143	0xbb1dc4d5	-0.002407362
144	0xbe3df3c9	-0.18550028
145	0xbde67226	-0.11252241
146	0xbeb4477e	-0.35210794
147	0x3e9d53d3	0.30728015
148	0xbb10d1a5	-0.0022097614
149	0x3aadc2d6	0.0013256918
150	0x3d17f8aa	0.03710238
151	0xba94850b	-0.0011331154
152	0x3d9ff204	0.07809833
153	0x3dec7375	0.11545459
154	0xbdbb8592	-0.09156336
155	0x3cbd935c	0.023141555
156	0xbd19b329	-0.037524376
157	0x3c1e0ae2	0.009646149
158	0x3ee513a9	0.44741562
159	0x3bc92a7a	0.006139097
160	0x3e81f5ce	0.25382847
161	0x3d1d0875	0.038338143
162	0x3d856983	0.065142654
163	0x3db06be9	0.08614332
164	0xbe82b775	-0.25530592
165	0x3eec81eb	0.4619287
166	0xbd2c6dde	-0.042096965
167	0xbbe1a81c	-0.0068864953
168	0x3d1714a6	0.036884926
169	0xbdb33248	-0.08749825
170	0x3dcb12d7	0.09915703
171	0x3d98c16a	0.07458766
172	0xbdb5f746	-0.08885054
173	0xbd277a04	-0.040887848
174	0xbcca0099	-0.024658488
175	0xbdd8c0b4	-0.1058363
176	0x3e81833f	0.25295445
177	0x3e1e6b58	0.15470636
178	0x3df00096	0.11718862
179	0xbd4653fb	-0.048419934

bias f4 [10]
0	0xbdf8c68b	-0.12147244
1	0xbd333504	-0.04375173
2	0x3d982a1b	0.07429906
3	0xbf1d4457	-0.61432403
4	0xbf2be67d	-0.6714857
5	0xbee6a386	-0.45046633
6	0xbe9c1f72	-0.3049274
7	0x3ea23d1e	0.31687254
8	0xbdf4eef6	-0.11959641
9	0xbf147782	-0.57994854

weight f4 [1, 10]
0	0xbddc34b2	-0.10752238
1	0x3d6054ad	0.054768253
2	0x3dcf5bd9	0.101249404
3	0xbccc14cd	-0.024912262
4	0x3eb114ff	0.3458633
5	0xbc917db7	-0.01776014
6	0x3d888ac4	0.066670924
7	0xbe01dfc1	-0.12683012
8	0x3d848f47	0.064726405
9	0xbd89a32a	-0.06720574
