model.pt (torch_old, 8320 bytes, 3 tensors)

weight f4 [10, 18]
0	0xbdbd0c13	-0.092308186
1	0xbc1a4fe7	-0.009418464
2	0x3ca4acf0	0.020101994
3	0x3d5a8160	0.053346038
4	0xbd9ffefc	-0.07812306
5	0xbc0ddf46	-0.00865919
6	0x3d0b2b1e	0.033976667
7	0xbc0014c2	-0.007817449
8	0xbce5a492	-0.028032575
9	0xbc923773	-0.017848706
10	0xbd4c558e	-0.04988628
11	0x3d95481a	0.07289143
12	0x3c223bb8	0.009901933
13	0xbd9a0749	-0.07520921
14	0xbed7f4d0	-0.42178965
15	0x3aa12e65	0.0012297152
16	0x3e1b1e73	0.15148334
17	0xbbb33157	-0.0054685283
18	0xbe25e81e	-0.16201827
19	0xbdce71fb	-0.10080334
20	0xbd49ab2e	-0.049235515
21	0x3dc1a823	0.09455898
22	0x3d9fc6e1	0.07801605
23	0x3c1cd4aa	0.009572187
24	0x3c7b1b65	0.015326356
25	0x3d65fcf7	0.05614945
26	0xbdc48ab9	-0.09596772
27	0x3d93c93c	0.07216117
28	0xbddd1d56	-0.10796611
29	0x3d139b87	0.036036994
30	0xbd85b1ca	-0.06528051
31	0xbd18be26	-0.037290715
32	0x3e19d86a	0.15023962
33	0x3d1599f7	0.036523785
34	0xbdaab3b4	-0.08335057
35	0xbca347d2	-0.019931708
36	0xbd4a64ca	-0.049412526
37	0xbe2991ab	-0.16559474
38	0x3d94edff	0.07271957
39	0x3dcc759b	0.09983369
40	0x3c07d416	0.008290311
41	0x3de9b0ce	0.11410676
42	0xbcc9405e	-0.024566825
43	0xbde84855	-0.11341921
44	0x3dbab3c9	0.091163225
45	0xbd9b4c86	-0.07582955
46	0x3e3d9081	0.18512155
47	0x3ca7f9f3	0.020504927
48	0xbb530ac9	-0.0032202473
49	0xbc1c6cdc	-0.0095474385
50	0x3c9b4c7d	0.01895737
51	0xbe189913	-0.14902143
52	0xbe016fa5	-0.12640245
53	0xbe81c80a	-0.2534793
54	0x3cd766e8	0.026294187
55	0xbe007b70	-0.12547088
56	0x3df0bf79	0.117552705
57	0x3e0bdfea	0.13659635
58	0x3d5a9f2d	0.053374458
59	0x3a15d7af	0.0005716038
60	0xbd1cdd79	-0.03829715
61	0x3b17203f	0.0023059992
62	0x3d8736d1	0.06602252
63	0xbd5ad93b	-0.053429823
64	0x3d42f0fb	0.047593098
65	0x3d7505e4	0.05982007
66	0xba82c865	-0.0009977935
67	0xbb8a6a93	-0.0042241304
68	0xbd6c928e	-0.057756953
69	0x3ce9870c	0.028506778
70	0xbdff4288	-0.12463862
71	0x3b1bd523	0.0023778162
72	0xbee77675	-0.45207563
73	0xbe0047fd	-0.12527461
74	0x3dc2a236	0.095035955
75	0xbefae439	-0.49002245
76	0x3e6f9a0a	0.23398605
77	0xbd2d0edb	-0.042250495
78	0xbd0d9e71	-0.03457493
79	0x3d8e8ca4	0.06960419
80	0xbe80097d	-0.2500724
81	0x3e104b8c	0.14091319
82	0x3e348b7a	0.17631331
83	0x3d072e1e	0.033002965
84	0xbab972d0	-0.0014148597
85	0xbd8907a5	-0.06690911
86	0x3edef316	0.43544835
87	0xbdd30f7c	-0.10305688
88	0x3c1af345	0.009457414
89	0xbdaad21a	-0.08340855
90	0xbd9b90e7	-0.07595997
91	0x3e210851	0.15725829
92	0xbdbff3cd	-0.09372673
93	0x3e99bd3a	0.3002718
94	0xbbbab7bd	-0.005698173
95	0xbbd32b54	-0.006444374
96	0xbbdd7650	-0.0067584887
97	0xbcdf3a3a	-0.027249444
98	0x3cd24216	0.025666278
99	0x3da5235e	0.080633864
100	0xbe0c31f0	-0.13690925
101	0x3d178c9b	0.036999326
102	0x3bf9b641	0.0076206033
103	0xbdbc4359	-0.09192533
104	0x3eac6c36	0.33676308
105	0x3d94407b	0.07238861
106	0xbe11f61c	-0.1425404
107	0xbba54cfa	-0.0050445767
108	0xbd8b4227	-0.06799727
109	0xbe015ed6	-0.12633833
110	0x3de8e641	0.113720424
111	0xbe5be8d8	-0.21475542
112	0x3cff3aa4	0.031155892
113	0x3c6d95b1	0.014501021
114	0xbd9ab9fa	-0.075550035
115	0xbb2bde0d	-0.0026224882
116	0xbd328697	-0.043585386
117	0x3e4e93a7	0.20173512
118	0x3d984a3e	0.074360356
119	0xbe34c32f	-0.17652582
120	0xbbd81a64	-0.006594943
121	0x3e25c960	0.161901
122	0xbd2316b0	-0.03981656
123	0xbd8bb4c4	-0.06821588
124	0x3e766692	0.24062565
125	0xbc9fb577	-0.019495709
126	0xbe1012e6	-0.14069709
127	0x3ca6eb68	0.020375922
128	0xbd833afc	-0.06407735
129	0x3db2ec2f	0.08736455
130	0x3d63f55d	0.05565392
131	0xbb959963	-0.0045654043
132	0x3c27fe1a	0.010253454
133	0x3a6ee1f8	0.00091126515
134	0xbdaadf78	-0.083434045
135	0xbcf8809a	-0.03033476
136	0xbe49aab6	-0.19694027
137	0x3d3bdda6	0.045865677
138	0x3bd75566	0.0065714596
139	0xbd8d524b	-0.06900462
140	0x3ea1de07	0.31614706
141	0xb8adb126	-8.282279e-05
142	0x3de58c3d	0.11208389
143	0x39063dd4	0.00012802269
144	0xbd1d48c2	-0.038399465
145	0xbed75604	-0.42057812
146	0x3e9393d3	0.28823718
147	0xbe2c20fc	-0.16809458
148	0x3e51c6f6	0.20486054
149	0xbb6ae5fa	-0.0035842643
150	0x3cd83ca9	0.026396113
151	0xbbf930a7	-0.0076046768
152	0x3c415a90	0.011801377
153	0xbe37a58a	-0.17934242
154	0x3d817cdb	0.063226424
155	0x3cdedbe5	0.027204463
156	0x3ba2a8a2	0.0049639503
157	0xbda15626	-0.0787776
158	0xbd1119d2	-0.035425015
159	0x3cae3a1d	0.021267945
160	0x3c6bce8b	0.014392505
161	0xbaced607	-0.0015780338
162	0x3e246364	0.1605354
163	0x3e688600	0.22707367
164	0x3ce2057a	0.027590502
165	0xbc49c74f	-0.012315585
166	0x3d63e615	0.055639345
167	0x3c17ec01	0.009272576
168	0xbd23d1e2	-0.03999508
169	0x3c26a7dd	0.010171858
170	0x3c694eda	0.014239991
171	0x3e52c892	0.20584324
172	0x3e00cc15	0.12577851
173	0xbd814ac1	-0.06313086
174	0xbb579bc0	-0.003289923
175	0x3dbbb8ec	0.091661304
176	0xbe82bb00	-0.25533295
177	0xbb8cb94f	-0.0042945514
178	0xbcd054c4	-0.025431044
179	0x3a5b0ec3	0.00083563867

bias f4 [10]
0	0x3eaf017a	0.34180814
1	0xbeccbb7b	-0.39986786
2	0xbf8ed7f5	-1.1159655
3	0xbeb3a08b	-0.35083422
4	0xbed2e7ed	-0.4119257
5	0xbed81534	-0.42203677
6	0xbf0c100a	-0.54711974
7	0x3e66f2e1	0.22553588
8	0xbeb0a644	-0.3450185
9	0xbeda0bd6	-0.42587155

weight f4 [1, 10]
0	0xbdf727f5	-0.12068168
1	0xbdab9827	-0.0837863
2	0x3f0c6e51	0.5485583
3	0x3df7912a	0.12088235
4	0xbd1f6a38	-0.038919657
5	0xbdcb7867	-0.09935074
6	0x3d972a70	0.07381141
7	0x3e447581	0.19185449
8	0x3e0ba28a	0.13636222
9	0xbe0d303a	-0.13787928
