model_3layers.pt (torch_old, 8320 bytes, 3 tensors)

weight f4 [10, 18]
0	0xbc85b9c0	-0.016323924
1	0xbda1def2	-0.079038516
2	0x3de053ea	0.10953505
3	0x3da28842	0.07936145
4	0xbd98d2e0	-0.07462096
5	0x3a032400	0.0005002618
6	0x3cf323d8	0.029680178
7	0x3c56c3b0	0.013108179
8	0xbc838fb8	-0.016059741
9	0x3e5ee93f	0.21768664
10	0x3e627177	0.22113596
11	0x3e539a7d	0.20664401
12	0xbe331e27	-0.17491971
13	0xbdf24050	-0.11828673
14	0xbe1ee077	-0.15515314
15	0x3d25271c	0.0403205
16	0x3c162050	0.009162977
17	0x3e591e57	0.2120298
18	0x3e4b83eb	0.19874541
19	0xbd71b400	-0.059009552
20	0xbc9a69a0	-0.018849194
21	0x3e2381ab	0.15967433
22	0x3e3f2019	0.18664588
23	0xbcfc3108	-0.030785099
24	0xbe04efce	-0.12982103
25	0xbd98fc3a	-0.074699834
26	0xbcf20768	-0.029544547
27	0x3de3a8d6	0.11116187
28	0xbdedc627	-0.1161006
29	0x3e230667	0.15920411
30	0x3e300f61	0.17193367
31	0x3c826148	0.015915528
32	0xbe36e605	-0.17861183
33	0xbe458b34	-0.19291383
34	0xbe024eba	-0.12725344
35	0x3e5365ad	0.20644255
36	0x3e4c7181	0.19965173
37	0x3e40e6e7	0.18838082
38	0x3d8244e2	0.063607946
39	0xbdee1cce	-0.11626588
40	0x3aa3cb80	0.0012496561
41	0xbe1d9f2c	-0.1539275
42	0xbd29c93c	-0.041451678
43	0xbd8a664e	-0.06757794
44	0xbca23740	-0.019801736
45	0xbd06da30	-0.032922924
46	0x3e48da7d	0.19614597
47	0xbd0808cc	-0.033211514
48	0x3e23ec15	0.16008027
49	0x3deb5012	0.114898816
50	0xbe64604c	-0.2230236
51	0x3e4255bf	0.18978022
52	0x3e597cdf	0.21239041
53	0x3d890e22	0.06692149
54	0x3d472bc4	0.048625723
55	0x3e398a73	0.1811922
56	0xbe704eb4	-0.23467523
57	0xbe4dc4ea	-0.20094648
58	0x3e11b561	0.14229347
59	0x3e66896d	0.22513361
60	0x3dfd5bf2	0.12371053
61	0xbd23e96c	-0.04001753
62	0xbcae8420	-0.021303236
63	0xbe678b3f	-0.22611712
64	0x3d448d74	0.047986463
65	0xbcb54468	-0.022127345
66	0xbdced1d4	-0.10098615
67	0xbdec3fc5	-0.115356006
68	0xbe4499df	-0.19199322
69	0xbe681470	-0.22664046
70	0xbe10ea81	-0.14151956
71	0xbe1bbd30	-0.15208888
72	0x3e082fdb	0.13299505
73	0xbd3491f4	-0.044084504
74	0x3e20c641	0.15700628
75	0x3cbb60b8	0.022873268
76	0xbdf8a3c4	-0.12140611
77	0x3db2a3ba	0.087226346
78	0xbdfe6baa	-0.12422879
79	0xbd953bc2	-0.072867885
80	0x3e1ba917	0.15201221
81	0xbe162dd6	-0.14665923
82	0x3dd9cf62	0.10635258
83	0xbc3b8b20	-0.011446744
84	0xbe58a5cf	-0.21157001
85	0x3e5acd47	0.2136737
86	0x3e0b2d53	0.13591509
87	0x3e6c7ed5	0.23095258
88	0xbdc524ec	-0.09626183
89	0x3c08ec20	0.008357078
90	0xbe29c858	-0.16580331
91	0xbe3a7b43	-0.18211083
92	0x3d614024	0.05499281
93	0x3e2ac4af	0.16676591
94	0xbe25ce55	-0.1619199
95	0x3d9e8f76	0.07742207
96	0x3de1832a	0.11011346
97	0x3ccf60d8	0.025314733
98	0x3d4dc43c	0.05023597
99	0x3dd6e45a	0.10492773
100	0xbdd488c2	-0.10377647
101	0x3d6b30e4	0.057419673
102	0x3d11cb14	0.03559406
103	0x3e253279	0.16132535
104	0xbe155f2c	-0.14587086
105	0xbe3668d3	-0.17813425
106	0x3c6e64f0	0.014550433
107	0x3d63ddac	0.055631325
108	0xbd26f7b8	-0.040763587
109	0xbcd14e10	-0.025549918
110	0xbd86e566	-0.06586723
111	0x3e53728f	0.2064917
112	0xbe1aaf9c	-0.15106052
113	0xbd3a9f68	-0.045562178
114	0x3e52ea73	0.20597248
115	0xbe599b09	-0.21250547
116	0x3d6eda8c	0.05831389
117	0x3e5a1519	0.2129711
118	0x3e47185f	0.1944289
119	0xbdb2a764	-0.087233335
120	0x3dd8a85a	0.105789855
121	0xbd55ba98	-0.052179903
122	0xbe5f8925	-0.2182966
123	0x3e528ef7	0.2056235
124	0x3e3fa3c9	0.18714823
125	0xbe3e24d5	-0.18568738
126	0xbe2c729a	-0.16840592
127	0xbe12f016	-0.14349398
128	0xbd2a8068	-0.041626364
129	0xbd1988b4	-0.037483886
130	0x3ccbd2e8	0.024880841
131	0xbe606060	-0.21911764
132	0x3d974eae	0.07388054
133	0xbd18d0fc	-0.037308678
134	0xbd3b2b08	-0.045695335
135	0x3e226e55	0.15862401
136	0x3e065803	0.13119511
137	0xbe05c33c	-0.13062757
138	0x3d72b164	0.059251204
139	0x3e65587b	0.22397034
140	0xbe4e13f6	-0.20124802
141	0xbe435575	-0.19075568
142	0x3bc40ae0	0.0059827417
143	0xbdfd4cc9	-0.12368161
144	0xbe1726e5	-0.14760931
145	0xbce9c790	-0.028537542
146	0xbd4b12f0	-0.049578607
147	0xbdf45593	-0.119303845
148	0x3e19f103	0.15033345
149	0xbe303ca6	-0.17210636
150	0x3d654e4c	0.055982873
151	0x3d83e53e	0.06440209
152	0xbe4812b4	-0.19538385
153	0x3de62556	0.1123759
154	0x3dbc60ae	0.09198128
155	0xbe4531d7	-0.19257294
156	0x3c6f8c70	0.014620885
157	0xbe46519b	-0.19367068
158	0x3e55a45f	0.20863484
159	0xbe01d4de	-0.12678859
160	0x3e52c34d	0.20582314
161	0xbe337c23	-0.17527823
162	0x3e40afe9	0.18817104
163	0xbe2b6c84	-0.16740614
164	0x3d4e08dc	0.050301418
165	0x3dd7cd6a	0.105372265
166	0x3e5be14d	0.21472664
167	0x3e672505	0.22572716
168	0x3e47509b	0.19464342
169	0xbbdb7a40	-0.006697923
170	0xbe009578	-0.12557018
171	0x3e2d4037	0.16919027
172	0xbe008303	-0.12549977
173	0x3e4f92d1	0.2027085
174	0xbe70985c	-0.2349562
175	0x3e235aef	0.15952657
176	0x3d8b6916	0.06807153
177	0xbe4421d0	-0.19153523
178	0x3de7f4da	0.113259986
179	0x3d89a4ca	0.06720884

bias f4 [10]
0	0xbe4117e6	-0.18856773
1	0x3ae4b800	0.0017449856
2	0x3cc04b38	0.023473367
3	0xbe02823e	-0.12744996
4	0xbdf96a41	-0.121784694
5	0x3d402074	0.04690595
6	0x3ce742f8	0.028230175
7	0xbe09ebf4	-0.13468915
8	0xbc0273d0	-0.007962182
9	0x3da0662a	0.07831986

weight f4 [1, 10]
0	0x3e33cc68	0.17558444
1	0xbdfee200	-0.1244545
2	0xbe36286e	-0.1778886
3	0x3e78e27a	0.24305144
4	0x3b820680	0.00396806
5	0x3e7991ea	0.24372068
6	0x3e81039b	0.25198063
7	0xbe9044d2	-0.28177506
8	0xbd83cdb0	-0.06435716
9	0x3d9cb710	0.07652104
